NO VISIBLE DEVICES!!!!
GPUS: []
NO GPU
Total jobs: 350
Total jobs: 350
{'Ntraining': 18, 'rotation': 18, 'L1_regularization': 1e-05}
Params: JI_Ntraining_18_rotation_18_L1_regularization_1e-05
File name base: ./results/part_3_1/bmi__ddtheta_1_L1_0.000010_hidden_500_250_125_75_36_17_JI_Ntraining_18_rotation_18_L1_regularization_1e-05
Model: "sequential"
_________________________________________________________________
 Layer (type)                Output Shape              Param #   
=================================================================
 dense (Dense)               (None, 500)               480500    
                                                                 
 dense_1 (Dense)             (None, 250)               125250    
                                                                 
 dense_2 (Dense)             (None, 125)               31375     
                                                                 
 dense_3 (Dense)             (None, 75)                9450      
                                                                 
 dense_4 (Dense)             (None, 36)                2736      
                                                                 
 dense_5 (Dense)             (None, 17)                629       
                                                                 
 dense_6 (Dense)             (None, 1)                 18        
                                                                 
=================================================================
Total params: 649958 (2.48 MB)
Trainable params: 649958 (2.48 MB)
Non-trainable params: 0 (0.00 Byte)
_________________________________________________________________
None
Epoch 1/1000
  1/730 [..............................] - ETA: 16:36 - loss: 30.8750 - 
…
